Experiment ID: 4068093
image path: logs/images/misc/4068093/, loss path: logs/loss/misc/4068093/
grid Dimension: [100, 1]
Deep learning model config: MLP(
  (net): Sequential(
    (0): Linear(in_features=1, out_features=1024, bias=True)
    (1): SiLU()
    (2): Linear(in_features=1024, out_features=1024, bias=True)
    (3): SiLU()
    (4): Linear(in_features=1024, out_features=1024, bias=True)
    (5): SiLU()
    (6): Linear(in_features=1024, out_features=1024, bias=True)
    (7): SiLU()
    (8): Linear(in_features=1024, out_features=1024, bias=True)
    (9): SiLU()
    (10): Linear(in_features=1024, out_features=1024, bias=True)
    (11): SiLU()
    (12): Linear(in_features=1024, out_features=1024, bias=True)
    (13): SiLU()
    (14): Linear(in_features=1024, out_features=1024, bias=True)
    (15): SiLU()
    (16): Linear(in_features=1024, out_features=1024, bias=True)
    (17): SiLU()
    (18): Linear(in_features=1024, out_features=1, bias=True)
    (19): SiLU()
  )
)
Positional Encoding -> scale=0.0, embedding_size=0
DL optim: Adam (
Parameter Group 0
    amsgrad: False
    betas: (0.9, 0.999)
    eps: 1e-08
    lr: 1e-05
    weight_decay: 0
)
Target grad function: (x ** 5) * sqrt(2 - x**3), target integral function: -2. (2 - x**3)**(2/3) * (x**3 + 2./3.) / 9.
Training:   0%|          | 0/15000 [00:00<?, ?it/s]Total Steps: 0, MSE loss 101335.585938
…
