Experiment ID: 4068245
image path: logs/images/misc/4068245/, loss path: logs/loss/misc/4068245/
grid Dimension: [100, 1]
Deep learning model config: Siren(
  (net): Sequential(
    (0): SineLayer(
      (linear): Linear(in_features=1, out_features=1024, bias=True)
    )
    (1): SineLayer(
      (linear): Linear(in_features=1024, out_features=1024, bias=True)
    )
    (2): SineLayer(
      (linear): Linear(in_features=1024, out_features=1024, bias=True)
    )
    (3): SineLayer(
      (linear): Linear(in_features=1024, out_features=1024, bias=True)
    )
    (4): SineLayer(
      (linear): Linear(in_features=1024, out_features=1024, bias=True)
    )
    (5): SineLayer(
      (linear): Linear(in_features=1024, out_features=1024, bias=True)
    )
    (6): SineLayer(
      (linear): Linear(in_features=1024, out_features=1024, bias=True)
    )
    (7): SineLayer(
      (linear): Linear(in_features=1024, out_features=1024, bias=True)
    )
    (8): SineLayer(
      (linear): Linear(in_features=1024, out_features=1024, bias=True)
    )
    (9): SineLayer(
      (linear): Linear(in_features=1024, out_features=1024, bias=True)
    )
    (10): SineLayer(
      (linear): Linear(in_features=1024, out_features=1024, bias=True)
    )
    (11): Linear(in_features=1024, out_features=1, bias=True)
  )
)
Positional Encoding -> first omega zero=0.9, hidden omega zero=0.9
DL optim: Adam (
Parameter Group 0
    amsgrad: False
    betas: (0.9, 0.999)
    eps: 1e-08
    lr: 1e-05
    weight_decay: 0
)
Target grad function: (x ** 5) * sqrt(2 - x**3), target integral function: -2. (2 - x**3)**(2/3) * (x**3 + 2./3.) / 9.
Training:   0%|          | 0/15000 [00:00<?, ?it/s]Total Steps: 0, MSE loss 102043.734375
…
