Experiment ID: 4067587
image path: logs/images/misc/4067587/, loss path: logs/loss/misc/4067587/
grid Dimension: [100, 1]
Deep learning model config: MLP(
  (net): Sequential(
    (0): Linear(in_features=1, out_features=1024, bias=True)
    (1): SiLU()
    (2): Linear(in_features=1024, out_features=1024, bias=True)
    (3): SiLU()
    (4): Linear(in_features=1024, out_features=1024, bias=True)
    (5): SiLU()
    (6): Linear(in_features=1024, out_features=1024, bias=True)
    (7): SiLU()
    (8): Linear(in_features=1024, out_features=1024, bias=True)
    (9): SiLU()
    (10): Linear(in_features=1024, out_features=1024, bias=True)
    (11): SiLU()
    (12): Linear(in_features=1024, out_features=1024, bias=True)
    (13): SiLU()
    (14): Linear(in_features=1024, out_features=1024, bias=True)
    (15): SiLU()
    (16): Linear(in_features=1024, out_features=1024, bias=True)
    (17): SiLU()
    (18): Linear(in_features=1024, out_features=1, bias=True)
  )
)
DL optim: Adam (
Parameter Group 0
    amsgrad: False
    betas: (0.9, 0.999)
    eps: 1e-08
    lr: 1e-06
    weight_decay: 0
)
Target grad function: 1. / (sqrt(x) * (x + 1.)), target integral function: 2 * atan(sqrt(x))
Training:   0%|          | 0/20000 [00:00<?, ?it/s]Total Steps: 0, MSE loss 0.933943
Training:   0%|          | 1/20000 [00:00<5:25:50,  1.02it/s]Total Steps: 1, MSE loss 0.933924
…
