Experiment ID: 4067589
image path: logs/images/misc/4067589/, loss path: logs/loss/misc/4067589/
grid Dimension: [100, 1]
Deep learning model config: MLP(
  (net): Sequential(
    (0): Linear(in_features=1, out_features=1024, bias=True)
    (1): Tanh()
    (2): Linear(in_features=1024, out_features=1024, bias=True)
    (3): Tanh()
    (4): Linear(in_features=1024, out_features=1024, bias=True)
    (5): Tanh()
    (6): Linear(in_features=1024, out_features=1024, bias=True)
    (7): Tanh()
    (8): Linear(in_features=1024, out_features=1024, bias=True)
    (9): Tanh()
    (10): Linear(in_features=1024, out_features=1024, bias=True)
    (11): Tanh()
    (12): Linear(in_features=1024, out_features=1024, bias=True)
    (13): Tanh()
    (14): Linear(in_features=1024, out_features=1024, bias=True)
    (15): Tanh()
    (16): Linear(in_features=1024, out_features=1024, bias=True)
    (17): Tanh()
    (18): Linear(in_features=1024, out_features=1, bias=True)
  )
)
DL optim: Adam (
Parameter Group 0
    amsgrad: False
    betas: (0.9, 0.999)
    eps: 1e-08
    lr: 1e-06
    weight_decay: 0
)
Target grad function: 1. / (sqrt(x) * (x + 1.)), target integral function: 2 * atan(sqrt(x))
Training:   0%|          | 0/20000 [00:00<?, ?it/s]Total Steps: 0, MSE loss 0.879588
Training:   0%|          | 1/20000 [00:00<2:57:37,  1.88it/s]Total Steps: 1, MSE loss 0.870499
…
